model_training_groups/group4_checkpoint_6_2_2_1_2.pth (torch, 27814 bytes, 22 tensors)

linear0.weight f4 [6, 768]
0	0xc00c47ab	-2.1918743
1	0xbfcdb35d	-1.6070362
2	0xbff66eee	-1.9252603
3	0x3f5bf977	0.8592753
4	0xbf768dab	-0.9630992
5	0x3f4b95b2	0.7952529
6	0xbf141649	-0.57846504
7	0xbf765269	-0.962195
8	0x3e91efef	0.28503367
9	0xbf9d0a6d	-1.2268807
10	0x3bacd1ca	0.0052740322
11	0x3f977f36	1.1835697
12	0x3ee521cb	0.44752344
13	0x3f5682ad	0.83793145
14	0xbfdc1bc6	-1.7195976
15	0xbf5df06c	-0.8669498
16	0xbed7a23b	-0.4211596
17	0xbf8dbe67	-1.1073731
18	0x3f4b7e47	0.7948956
19	0xbfc4b06d	-1.5366341
20	0x3ec516dc	0.38494003
21	0x3f4056e3	0.7513258
22	0x3f69f1c5	0.91384536
23	0x3f0b5280	0.5442276
24	0x3f4bacb2	0.7956039
25	0x3ea45c23	0.32101545
26	0xbe26976f	-0.16268705
27	0xc0018926	-2.0239959
28	0x3dcb2435	0.09919015
29	0x3fd715bd	1.6803509
30	0x3ee27675	0.44231
31	0xbed88cc9	-0.4229491
32	0x3f6eb760	0.9324856
33	0xc0274366	-2.6134887
34	0x3e5023c0	0.20326138
35	0xbfd52df6	-1.6654651
36	0x3fc9738d	1.5738388
37	0x3ff1222e	1.8838556
38	0x3d4bd471	0.049763147
39	0xbf9d27e7	-1.2277802
40	0xbfcfe5fb	-1.624206
41	0x402403c5	2.56273
42	0x3e429175	0.190008
43	0x3f20de83	0.62839526
44	0x3f4ac35f	0.7920436
45	0x3f41f6ce	0.7576722
46	0xbfc5bcf1	-1.5448285
47	0x3db5083c	0.08839461
48	0xbf426865	-0.75940543
49	0x3e5d9b22	0.2164121
50	0xbebac5f5	-0.36479154
51	0xbfcb9b17	-1.5906705
52	0xbf436595	-0.76326877
53	0xbf8ff427	-1.1246384
54	0x3e09e3ea	0.13465849
55	0x3f66c15e	0.90138805
56	0x3fbc529f	1.4712714
57	0xbf4f4ac8	-0.8097348
58	0x3fb64d80	1.4242401
59	0x403ab907	2.9175432
60	0x3ef5f6e4	0.48039925
61	0xc0017cde	-2.0232463
62	0x3f9fbb2a	1.2478993
63	0x3f274ffc	0.6535642
64	0xbf0446d6	-0.5167059
65	0xbf9856e1	-1.1901513
66	0x3eec3b19	0.46138838
67	0xbdab459a	-0.08362885
68	0xbf9c3fd0	-1.2206974
69	0xbfd3e309	-1.6553661
70	0x3f1d5ee7	0.61472934
71	0xbdae9033	-0.085235976
72	0xbdb748ba	-0.08949418
73	0x3eeca952	0.4622293
74	0xc02c2e41	-2.690323
75	0x3f7b69a0	0.98208046
76	0x3e1dd114	0.15411788
77	0x3f2635f8	0.649261
78	0xbf3147c4	-0.6925013
79	0x3fd888de	1.6916769
80	0xbfa9a324	-1.3252912
81	0xbd19191c	-0.03737746
82	0x3e9a2e47	0.30113432
83	0x3e2da777	0.16958414
84	0x3f8ce2fe	1.1006773
85	0xbfaa4648	-1.3302698
86	0xbf50a1d9	-0.8149696
87	0x3ec1d73e	0.3785953
88	0x3cbe742d	0.023248756
89	0x3c52a10d	0.01285578
90	0x3e466c0f	0.19377159
91	0xbf177b34	-0.5917237
92	0x3eb0241c	0.3440255
93	0xc0146663	-2.3187492
94	0x3f3eb5cc	0.7449615
95	0x3f394a47	0.72378963
96	0xbdb49fab	-0.08819517
97	0xbf6f1c52	-0.9340259
98	0xc02c9ae1	-2.696953
99	0x3fd7c8de	1.6858175
100	0xbe8228d6	-0.2542178
101	0xbfacf7ff	-1.3513182
102	0x3f9bdbe7	1.2176484
103	0x3f23c360	0.63969994
104	0xc00c95a0	-2.1966324
105	0x3fb0aef1	1.3803388
106	0x3f6fd5df	0.93685716
107	0x3f10fc62	0.56635106
108	0xbf87a129	-1.0596057
109	0x3f1dd9f4	0.61660695
110	0xbfde928f	-1.7388476
111	0xc01d21b7	-2.4551828
112	0xbf895bf8	-1.0731192
113	0x3f45746a	0.7713076
114	0xc0059741	-2.0873568
115	0x3f3325b5	0.6997941
116	0x3f530f50	0.8244524
117	0xbf48b7a5	-0.7840522
118	0x3f96ff21	1.1796609
119	0x3fdceb8e	1.7259386
120	0xbf0886db	-0.53330773
121	0x3fc19ade	1.5125387
122	0xbe2eb6ea	-0.17061964
123	0xc014c573	-2.3245513
124	0xbfa344c9	-1.2755367
125	0xbe51658e	-0.20448896
126	0xbf64b35b	-0.89336175
127	0xbf02a4fd	-0.51033
128	0x3eec7d69	0.4618943
129	0x3fb11302	1.3833926
130	0x3f08e9f1	0.53481966
131	0xbee6c684	-0.4507333
132	0xbe92042d	-0.2851881
133	0xbfd2699e	-1.6438482
134	0xbf2bee5a	-0.6716057
135	0xbfc76b7d	-1.5579678
136	0x3f117ef7	0.5683436
137	0x3fad3a68	1.3533449
138	0xbff4a740	-1.9113541
139	0xbe4a28da	-0.19742146
140	0x3fa1214a	1.2588284
141	0xbddfd25a	-0.10928793
142	0x40036aa1	2.053383
143	0x3f079ca2	0.5297338
144	0x3fcf7ef3	1.6210617
145	0x3f37b370	0.71758175
146	0x3f82e12b	1.0224966
147	0xbfd779f0	-1.6834087
148	0xbf968533	-1.1759399
149	0x3ea074ea	0.31339198
150	0xbfa20146	-1.2656639
151	0xbf46a3ac	-0.77593493
152	0x3e45c830	0.19314647
153	0xbfab587e	-1.3386381
154	0xbf5c90e0	-0.8615856
155	0x3f1ee32f	0.62065405
156	0xbfb94533	-1.4474243
157	0xc032ffbd	-2.796859
158	0xbfa0db9a	-1.2567017
159	0xbf946b58	-1.1595259
160	0xbf2fcd20	-0.6867237
161	0xbeb449be	-0.3521251
162	0x3f46e473	0.77692336
163	0xbeb23377	-0.3480489
164	0x3ffd03c7	1.9766778
165	0x3eccd098	0.40002894
166	0xbde60193	-0.11230769
167	0x3f08fe7e	0.53513324
168	0xbfa705cc	-1.3048644
169	0x3e29252e	0.16518089
170	0xbe0109c5	-0.12601383
171	0xbf2be59e	-0.67147243
172	0x3f19ae98	0.60032034
173	0x3f79a4cf	0.975171
174	0x3f15ddb9	0.58541447
175	0xbf04c5cb	-0.5186431
176	0x3f751346	0.95732534
177	0x3d2a08af	0.041512188
178	0x3e880cae	0.26572174
179	0x3e79af11	0.24383189
180	0x3f3df68f	0.74204344
181	0x3f0d1d48	0.55122805
182	0xbfb6bc7f	-1.4276274
183	0xbe0fe3d8	-0.14051759
184	0xc0347d8f	-2.8201635
185	0xbfa397e9	-1.2780734
186	0xbf92ff08	-1.1484079
187	0x3ebf6900	0.37384796
188	0x3f490722	0.7852651
189	0xbd43018b	-0.047608893
190	0x3f0c0b93	0.5470516
191	0x3fbbd5e0	1.4674644
192	0xbbb37110	-0.0054761246
193	0x3f3384cf	0.70124525
194	0xbece7e5b	-0.40330777
195	0xbe199d6c	-0.15001458
196	0xbf59bee6	-0.8505691
197	0x3fdc9031	1.7231504
198	0xbfb076ff	-1.3786315
199	0xbfa2f99b	-1.2732424
200	0xbf7ccb02	-0.98747265
201	0x3dc27fe0	0.094970465
202	0x3fa71910	1.3054523
203	0x3e4b2b7a	0.19840804
204	0x3f4aa927	0.79164356
205	0xc0143fe7	-2.3164003
206	0xbf9f327a	-1.2437279
207	0x3ffc90e2	1.9731715
208	0xbf1da8d7	-0.61585754
209	0x3fa60ee2	1.2973292
210	0xbddb2e4b	-0.10702189
211	0xbf2a8e80	-0.6662369
212	0x3ee2fafd	0.44332114
213	0xbfde04b4	-1.7345185
214	0xbfbdbdb6	-1.482352
215	0xbf1363c3	-0.575741
216	0x3f47465b	0.7784173
217	0x3febd74f	1.8425082
218	0xbea5975e	-0.32342046
219	0x3f0a695f	0.54067034
220	0x3f9f53f3	1.2447494
221	0xbfa397c4	-1.278069
222	0xbecfcca7	-0.40585825
223	0x3fdd3a15	1.728335
224	0x3f263008	0.6491704
225	0xbfb994dd	-1.4498554
226	0xbf87a3c2	-1.059685
227	0x3f28d7ad	0.65954095
228	0x3f49d331	0.7883788
229	0xbf9af559	-1.2106124
230	0x3fe51975	1.7898394
231	0x401bf69f	2.4369276
232	0x3f8b3dd2	1.0878241
233	0x3f48d32a	0.7844721
234	0xbdb287a4	-0.08717278
235	0x3fc129da	1.5090897
236	0x3fb8447c	1.43959
237	0xbf5be98f	-0.8590326
238	0x3d9aae8d	0.07552824
239	0xbf80fd20	-1.0077248
240	0x402bde25	2.6854336
241	0x3ea0fbf3	0.31442222
242	0xbefa8322	-0.4892817
243	0xbede20c5	-0.43384376
244	0xbf38fb70	-0.72258663
245	0x3fc4da01	1.537903
246	0x40175193	2.364354
247	0x3ee6a199	0.45045164
248	0x3f98454c	1.1896148
249	0x3df66a76	0.120320246
250	0x3e8e4620	0.27787876
251	0x3fbdb100	1.4819641
252	0xc01af97a	-2.4214768
253	0x3d3b2138	0.045685977
254	0x3c88b091	0.016685756
255	0xbe44a46d	-0.19203348

linear0.bias f4 [6]
0	0xbc20fcf7	-0.0098259365
1	0x3b1d29cb	0.002398121
2	0xbb93cf23	-0.0045107766
3	0x39e6d603	0.0004402847
4	0x3c2b6106	0.010460144
5	0x3ba9e909	0.0051852507

encoder.layers.0.attention.w_q.weight f4 [6, 6]
0	0xc0b1a261	-5.5510716
1	0x40889b8c	4.2689877
2	0x403407ca	2.8129754
3	0xc0b1900b	-5.5488334
4	0xc0297275	-2.647611
5	0x40a14873	5.040094
6	0x40579eb3	3.3690612
7	0xbe891f82	-0.2678185
8	0xc09633b8	-4.6938133
9	0xbe335cf3	-0.17515926
10	0xc0405110	-3.0049477
11	0xc0a84fe7	-5.2597537
12	0x3f41b7f4	0.75671315
13	0xbf65d668	-0.8978028
14	0x3f93cd34	1.1546998
15	0x40846723	4.13759
16	0x40000c68	2.0007572
17	0x3f9c5061	1.221203
18	0xc09b3cc0	-4.851166
19	0x40680853	3.625508
20	0xc076c130	-3.8555412
21	0xc0a72e75	-5.224421
22	0xc0aede83	-5.464662
23	0x3e4fb7b3	0.2028492
24	0x410b0701	8.68921
25	0x409444b4	4.6333866
26	0xc0f1b906	-7.553836
27	0xbf6a175f	-0.9144191
28	0xc050e265	-3.263818
29	0xbfdaf48b	-1.7105879
30	0xc0badf44	-5.839754
31	0x3fdad833	1.7097229
32	0x3f8d0fa0	1.1020393
33	0xbe05a4a4	-0.13051087
34	0xbfafd8e9	-1.3738071
35	0x3fcf85a5	1.621266

encoder.layers.0.attention.w_q.bias f4 [6]
0	0xbf2b6841	-0.66955954
1	0xbf8ca481	-1.0987703
2	0xbf9d76ff	-1.230194
3	0xbf8b568b	-1.0885786
4	0xbe91ed19	-0.28501204
5	0x4005260a	2.0804467

encoder.layers.0.attention.w_k.weight f4 [6, 6]
0	0x3fd799a2	1.684376
1	0x3dd3678d	0.10322485
2	0xc06b5f01	-3.6776736
3	0xbda2d433	-0.0795063
4	0xbf33eaec	-0.7028034
5	0x3fc5b08d	1.5444504
6	0xbfa45d0b	-1.2840894
7	0xbfc5ab86	-1.544297
8	0xbd5b33ee	-0.05351632
9	0xbf7903d0	-0.9727144
10	0xbdbb45f0	-0.09144199
11	0x405d755e	3.4602885
12	0x3f2939f4	0.66104054
13	0xbf5726f8	-0.84043837
14	0x3d5b12bf	0.053484675
15	0x3f9c95be	1.2233198
16	0x3f7c1bb5	0.9847978
17	0x4085d750	4.1825333
18	0xc027f340	-2.6242218
19	0xbd85d112	-0.065340176
20	0xbfc48058	-1.5351667
21	0x3dd069de	0.101764426
22	0xc0028a2b	-2.039683
23	0x3fb886c8	1.4416132
24	0x3f647de2	0.8925458
25	0xbf5a15c2	-0.8518945
26	0xc0181040	-2.3759918
27	0x4021177b	2.5170581
28	0xbd39b457	-0.045338
29	0xbf4628a8	-0.77405787
30	0x4005a618	2.0882626
31	0x3f825ef1	1.0185224
32	0xbf0d0e12	-0.55099595
33	0xc034a519	-2.8225768
34	0x3dc97165	0.098360814
35	0xbf9091e8	-1.1294527

encoder.layers.0.attention.w_k.bias f4 [6]
0	0x3f00253c	0.50056815
1	0xbddf0473	-0.108895205
2	0x3ea0b7de	0.3139028
3	0xbf79ce76	-0.9758066
4	0x3e5ea7fb	0.21743767
5	0x3f2fc50d	0.6866005

encoder.layers.0.attention.w_v.weight f4 [6, 6]
0	0xc1084bd4	-8.518513
1	0x40a3e92b	5.122213
2	0x40ee31f3	7.4435973
3	0xbfb8da8d	-1.4441696
4	0xc0804986	-4.008975
5	0xbf1acd3d	-0.6046942
6	0x4005d667	2.091211
7	0x40aa530b	5.322637
8	0x3fd2b670	1.6461926
9	0x40ac083a	5.376004
10	0xbdb761f9	-0.08954234
11	0x3ff31cbe	1.8993146
12	0x3febbf61	1.8417779
13	0x40a0b616	5.0222273
14	0xc0cf1dfd	-6.4724107
15	0x3f226ff4	0.63452077
16	0xc079526e	-3.895656
17	0xbf2d8cd5	-0.6779302
18	0x400c9494	2.1965685
19	0x40a2800e	5.0781317
20	0xc0bc3ef5	-5.882685
21	0xc013da40	-2.310196
22	0x3f24b5d1	0.6433993
23	0x4023cc73	2.5593536
24	0x3ea8d9ef	0.3297877
25	0x40a9931f	5.299209
26	0x3f7555be	0.9583396
27	0x40a42b7f	5.1303096
28	0x4061f1a9	3.5303748
29	0x3f9e3fb8	1.2363195
30	0xc105a1b3	-8.351977
31	0x409e8c96	4.9546614
32	0x40a75726	5.229388
33	0xc0659356	-3.5871177
34	0xbff30ec4	-1.8988881
35	0x4037b395	2.8703358

encoder.layers.0.attention.w_v.bias f4 [6]
0	0x3e37fc24	0.17967278
1	0xbdd4afd9	-0.10385103
2	0xbdcc330c	-0.09970674
3	0x3cdc8a8d	0.026921535
4	0x3db8b24f	0.09018385
5	0xbd91e31b	-0.07123395

encoder.layers.0.attention.w_concat.weight f4 [6, 6]
0	0xc0497650	-3.1478462
1	0x3fd146a0	1.6349678
2	0xbfd2c2d0	-1.6465702
3	0xc057a397	-3.3693597
4	0x3fb364e9	1.401517
5	0x3f42e998	0.76137686
6	0xc020489f	-2.5044324
7	0xc000446d	-2.0041764
8	0x4084a5e7	4.1452518
9	0xbefbfe51	-0.49217466
10	0xbf17c4ae	-0.59284484
11	0x407098b2	3.7593198
12	0xbf8dd833	-1.1081604
13	0x3feda15b	1.8564867
14	0x3f41443f	0.7549476
15	0xbf7493e5	-0.9553817
16	0xbffa7e82	-1.9569857
17	0x3f52fa57	0.8241324
18	0x3f8a2441	1.0792314
19	0xc026da8d	-2.6070893
20	0xbfacced2	-1.3500617
21	0x3f9c3335	1.2203127
22	0x402138fb	2.5191028
23	0xbf8bfb6e	-1.0936105
24	0x400c30ca	2.1904778
25	0xc068b87c	-3.63626
26	0xc00d0200	-2.203247
27	0x400b1807	2.1733415
28	0x40627cad	3.5388596
29	0xbffd5b67	-1.9793519
30	0x400b08db	2.1724155
31	0x4052fae6	3.2965636
32	0xbf04b8ac	-0.51844287
33	0x3f69db6b	0.9135043
34	0xc075119f	-3.8292005
35	0xbff32e01	-1.8998414

encoder.layers.0.attention.w_concat.bias f4 [6]
0	0xbe894be0	-0.268157
1	0xbed11e1c	-0.40843284
2	0xbdfb9b0d	-0.12285433
3	0x3ebb5af6	0.36592835
4	0x3f2f28a0	0.68421364
5	0x3eb5041b	0.35354695

encoder.layers.0.norm1.gamma f4 [6]
0	0x3b6c118c	0.00360212
1	0x3db2bf0c	0.087278455
2	0x40041d06	2.0642715
3	0x3f9df7c2	1.2341235
4	0x3f6bffae	0.9218701
5	0x3e7874c9	0.242633

encoder.layers.0.norm1.beta f4 [6]
0	0xbc06138e	-0.008183373
1	0x3d25f0e8	0.04051295
2	0x3f8b8467	1.0899781
3	0xbf5e972b	-0.86949414
4	0xbf936616	-1.1515529
5	0xbdbdbb02	-0.092641845

encoder.layers.0.ffn.linear1.weight f4 [2, 6]
0	0xbf1fdfe2	-0.62450993
1	0x40607784	3.5072947
2	0x3e71969e	0.23592612
3	0xbf0fa1fb	-0.5610654
4	0xbf000fc4	-0.50024056
5	0x3e9d53fe	0.30728143
6	0xbf9d404c	-1.2285247
7	0x40072313	2.1115158
8	0x3ea0f198	0.3143432
9	0xbf3fd4d8	-0.7493415
10	0xbf274738	-0.65343046
11	0xbf247c64	-0.64252305

encoder.layers.0.ffn.linear1.bias f4 [2]
0	0xbecf9700	-0.4054489
1	0xbe2ab67c	-0.16671175

encoder.layers.0.ffn.linear2.weight f4 [6, 2]
0	0x3f3b0b69	0.73064286
1	0x3f216ae0	0.63053703
2	0xbeebe8be	-0.46076006
3	0xbdf18f0e	-0.11794864
4	0xbf1ac8f1	-0.6046286
5	0xbe2d01e5	-0.16895254
6	0xbf02bd2d	-0.5106991
7	0xbd4cac19	-0.049968813
8	0xbf0719c2	-0.5277368
9	0x3c7af46c	0.015317064
10	0x3f7818a6	0.9691261
11	0x3f48bfb9	0.78417546

encoder.layers.0.ffn.linear2.bias f4 [6]
0	0x3ed0bdd8	0.4076984
1	0x3f95ef34	1.1713624
2	0xc0363f9b	-2.8476322
3	0xbce1b930	-0.027554125
4	0xbdb1039d	-0.08643267
5	0x3fe17190	1.7612782

encoder.layers.0.norm2.gamma f4 [6]
0	0x3fc69de6	1.5516937
1	0x3f906de7	1.128354
2	0x3f63b7e3	0.88952464
3	0x400e8798	2.227026
4	0x40071b29	2.1110327
5	0x3f927cc2	1.1444323

encoder.layers.0.norm2.beta f4 [6]
0	0xbeb94d34	-0.36191714
1	0xbf24cd3a	-0.6437565
2	0x3fcf2f01	1.618622
3	0x3df0e9be	0.11763333
4	0x3e3e3ad8	0.18577135
5	0xbf9ce8c4	-1.2258534

linear1.weight f4 [2, 6]
0	0x3e9ff011	0.31237844
1	0xbee36ed5	-0.44420496
2	0x3eefe5cc	0.4685501
3	0xbe4971ce	-0.1967232
4	0xbe4dbf06	-0.20092401
5	0x3e80631c	0.25075614
6	0xbe82be39	-0.25535753
7	0xbdfd2fc8	-0.12362629
8	0xbff070fe	-1.8784482
9	0x3eca3c7d	0.39499274
10	0x3ec24d4d	0.379496
11	0xbf6c1774	-0.92223287

linear1.bias f4 [2]
0	0x3d69b799	0.057059858
1	0x3ed48978	0.4151113

linear2.weight f4 [2, 24]
0	0x3eacf4d7	0.33780548
1	0xbeda4417	-0.42630073
2	0x3e94cdd6	0.2906329
3	0xbe53444f	-0.20631526
4	0x3e40345d	0.18769975
5	0xbeda0b4b	-0.4258674
6	0x3ecd2dbd	0.40073958
7	0xbebd1723	-0.36931714
8	0x3eb19ed5	0.34691492
9	0xbea6960b	-0.3253635
10	0x3ecf0a3c	0.40437496
11	0xbf164cf3	-0.58711165
12	0x3f029822	0.51013386
13	0xbefb5d32	-0.4909454
14	0x3ef2ec18	0.4744575
15	0xbf0a739b	-0.5408265
16	0x3e61acf9	0.2203864
17	0xbeca7579	-0.3954275
18	0x3e9a7c75	0.30173078
19	0xbe8a9d03	-0.27072915
20	0x3e833faa	0.2563451
21	0xbeffc88a	-0.49957687
22	0x3e7931dd	0.24335428
23	0xbedd276a	-0.43194133
24	0xbe92c1e0	-0.2866354
25	0x3ed80493	0.4219099
26	0xbdafee96	-0.085904285
27	0x3efe00ee	0.49610084
28	0xbe9885b4	-0.29789507
29	0x3ea8f46b	0.32998976
30	0xbe6e4121	-0.23267032
31	0x3edf5b53	0.43624362
32	0xbe701a7e	-0.23447606
33	0x3f16ae74	0.58859944
34	0xbed7a461	-0.421176
35	0x3ee0ede8	0.43931508
36	0xbe1e673f	-0.15469073
37	0x3ed3621b	0.41285786
38	0xbe14a979	-0.14517774
39	0x3eb49cf4	0.35275996
40	0xbebc6f1f	-0.3680353
41	0x3f14669e	0.5796908
42	0xbe888b01	-0.26668552
43	0x3f19bd1b	0.6005418
44	0xbebab953	-0.36469516
45	0x3ed600db	0.41797528
46	0xbed8dc62	-0.4235564
47	0x3ec9baee	0.3940043

linear2.bias f4 [2]
0	0x3fc3807a	1.5273583
1	0xbfa90868	-1.320569
