model_training_groups/group2_checkpoint_6_2_2_1_2.pth (torch, 27814 bytes, 22 tensors)

linear0.weight f4 [6, 768]
00000000: 0b3b 893e cad0 b83f 3c6f 513e 9691 213f
00000010: a2c5 8a3e 590e 10bf e18a 4f3e 7abe 993e
00000020: bf68 24be 6f10 88bf f40c 71bd 7b7b 1c3f
00000030: 816f bf3e 3b39 293f 515f 01bf 328a b0bf
00000040: 89ab b9bf 7e9e a4bf 6fca d73f 65ba e9be
00000050: 4dd4 253f 12c4 eb3e da0b 08bf 8ee9 593f
00000060: 5981 b8bf 7133 d8be e28d 49bf 6fa6 debf
00000070: 6c22 683e 7887 d6bf dfdd 99bf 6fee 0bbf
00000080: 79a3 093f f54b 1dbe 73d8 e73c d3ca 8cbf
00000090: 32f6 373e 23c7 b53f 57ed 433d 6526 b0be
000000a0: ceb9 0e40 240d 8fbf b155 0c3f 240d 46bf
000000b0: fe82 e63e 0a64 5b3c d769 293f b621 223f
000000c0: 511b 273f 2f6e 45bf 3764 8abe e178 04bf
000000d0: ac32 bf3e 51c1 76bf eb21 8bbd 4284 9f3f
000000e0: c3c6 6fbf 1742 c33f 8101 04bf e812 953e
000000f0: 796c 7a3e dc14 613f 9022 fbbf c21a a0be
00000100: 8822 f5bf 33cc cc3e ef2a ecbf f115 3bbf
00000110: 42e1 ac3c 8e69 1140 5230 e43e 6788 6fbf
00000120: e590 9dbe ba5a 0ec0 865e 83bc 160a 623f
00000130: 2906 a43e 24f0 cd3e 2df8 a2bf bbc3 2abf
00000140: 7854 30bf 144a 4440 1d99 ef3e e11b 64bf
00000150: 6045 1bbe 6cec 6d3e c4f5 7f3e 02ab 51bf
00000160: 1741 bfbf c4e3 dabf 3fdc aabf 4a53 5e3e
00000170: 0853 ac3f 50c4 87be 81e4 bf3f ae8d 7e3f
00000180: 4f87 b8bd 2489 f1be 9c09 37bf 46c9 e2be
00000190: ebd1 913f 5051 313e 6724 cc3f aad1 4c3e
000001a0: 7ff2 d43f 0a9c 51bf 3cf5 3cbf df1e 84bf
000001b0: 264d 43bf c598 b83d 5129 9fbf bcdd 873f
000001c0: f586 0b3f e012 88be ab6d 943f ad01 cc3f
000001d0: 9219 01be 61d8 76bf d216 b93f 4b6a fd3d
000001e0: cffa 3abe 672a c33f 274d 3c3d 8759 3640
000001f0: 23d6 ad3f 99ef 2fbf 4884 213f 74e7 aa3f
00000200: 5f22 293e 320e 4cbf b1d6 49be 49ab b73e
00000210: 2569 fcbd 3e32 a93f db07 be3e 39c8 8a3f
00000220: 3a79 eebf 9e25 61be 4e8e abbe cbc4 5ebf
00000230: f5ba a2bf 28af 81bf e0a2 42bf 23e4 8e3e
00000240: a326 113f 867e 053f fc53 0dbe 5dc9 963e
00000250: 6787 1abf d32c 203e 8eee 9fbd 00de 353f
00000260: 9ea4 cd3e 6e44 c93f 1dae 6cbf ba57 febe
00000270: f13a f23e 261b 503e ccaf 90be f6b6 433e
00000280: ea44 03bf 8108 133f 92d1 36bf a504 9c3e
00000290: 196d aebf a7a3 0bbf e3b5 4a3f ed91 dabe
000002a0: ef17 26c0 9552 98bf dd7a efbf f9df 70bf
000002b0: 8d33 1fbf 6981 213f c0b0 463f dd5a 0f3f
000002c0: a27d 273f 611c 6bbf c8b6 393f b4d2 9abe
000002d0: ad01 a73f 4842 6e3d 3a4a 72bf 6549 043f
000002e0: ba68 de3e f05e debe 8906 10bf 0393 263f
000002f0: d810 ae3f 5679 82bf a7b4 acbd 00e8 443f
00000300: 5e75 0040 f51c babf 4985 42bf 9d8e 16bb
00000310: 9184 21bf 6a40 b13e 7b9a 4abf 476e c53f
00000320: 24d5 83bf 794e a03f e299 38be 061d 6b3e
00000330: 10e3 253e 7c3c 903f 6433 8fbd 11de ad3f
00000340: f274 373d e48a 9dbb 0c71 e8bf 91e2 36be
00000350: 41c5 71be ea34 48bd ae28 163f cd82 1e40
00000360: caf2 be3e 2f2a b2be 9a00 8b3f 6a6f 8fbf
00000370: d62e 52bf 0fef 98bf 47b8 6bbe 808e 8bbf
00000380: 1731 0b40 59e6 473e 59a9 ae3e cff1 0abe
00000390: e9a3 96bf 66eb f2be ff4a 77be 5a62 4cbf
000003a0: 3f79 4a3f 89d5 5b3f 4771 cf3e 9e0f 603e
000003b0: ac33 aa3f c75d f63f 9b1e 803f 2377 dd3e
000003c0: a9e2 4fbf 70f8 e7be d422 573f 853b 4bbe
000003d0: 27ae 353f 84e9 08c0 190d f5bc 22ca 79bd
000003e0: 230b ffbf a201 033e 0dc1 25bf eef8 833f
000003f0: f5c7 02c0 0a80 bd3e 6e39 b8bb 13f3 87bf
0.2680286 1.4438717 0.20452589 0.6311277 0.27103907 -0.5627189 0.20267822 0.30028135
-0.16055582 -1.0630015 -0.058850244 0.61125916 0.37389758 0.6610295 -0.50536066 -1.3792174
-1.4505473 -1.2860868 1.6858653 -0.4565002 0.6477707 0.46048027 -0.53143084 0.85122
-1.4414474 -0.42226747 -0.7873212 -1.7394542 0.22669381 -1.6760092 -1.2020835 -0.54660696
0.53765064 -0.15361007 0.028301453 -1.0999397 0.1796501 1.4201397 0.047833767 -0.34404293
2.2300906 -1.1175885 0.54818255 -0.773638 0.45021814 0.01339055 0.66177124 0.6333269
0.65276057 -0.7712125 -0.27029583 -0.51746947 0.37343347 -0.9638873 -0.06793579 1.2462237
-0.9366266 1.5254544 -0.51564795 0.29115987 0.24455442 0.87922454 -1.9619923 -0.31270415
-1.9151163 0.39999542 -1.8450602 -0.73080355 0.021103505 2.2720675 0.44568115 -0.9356751
-0.30774608 -2.2242875 -0.016036283 0.8829664 0.3203595 0.40222275 -1.2731987 -0.6670491
-0.6887889 3.0670214 0.46796504 -0.8910504 -0.15163183 0.23234719 0.24996096 -0.8190156
-1.4941739 -1.7100759 -1.3348464 0.2171146 1.3462839 -0.26516962 1.4991609 0.99434936
-0.09010183 -0.47174942 -0.7149904 -0.44294184 1.1392187 0.17316175 1.5948609 0.20001855
1.6636504 -0.8187872 -0.738117 -1.0321921 -0.76289594 0.090135135 -1.2434484 1.0614543
0.54502803 -0.265769 1.1595968 1.5938011 -0.1260741 -0.9642392 1.4460089 0.123737894
-0.18259738 1.5247315 0.045972016 2.8492143 1.3580974 -0.6872497 0.6309247 1.3351884
0.16517018 -0.7970916 -0.19710805 0.35872868 -0.12324742 1.3218458 0.37115368 1.0842353
-1.8630745 -0.21987006 -0.33507007 -0.8701903 -1.2713305 -1.0131578 -0.7602978 0.2790843
0.5669958 0.52146184 -0.13801569 0.29450503 -0.6036286 0.15642099 -0.078091726 0.7104187
0.40164655 1.5724008 -0.92453176 -0.49676305 0.47310594 0.20322856 -0.28259122 0.19112763
-0.5127703 0.5743485 -0.7141353 0.30472293 -1.3627044 -0.5454659 0.7918379 -0.42689458
-2.5952108 -1.1900202 -1.870937 -0.94091755 -0.62188035 0.6308809 0.7761345 0.5599802
0.65426075 -0.9184018 0.7254453 -0.3023888 1.3047386 0.05816868 -0.9464451 0.5167449
0.43439275 -0.43431807 -0.5625997 0.6506807 1.359889 -1.0193279 -0.08432894 0.76916504
2.0071635 -1.4540087 -0.75984627 -0.0022973188 -0.63092905 0.34619457 -0.7914197 1.5424279
-1.029942 1.2523948 -0.18027452 0.2296029 0.16199899 1.1268458 -0.06992224 1.3583394
0.044789262 -0.004807817 -1.8159499 -0.17859866 -0.23610403 -0.048878588 0.5865582 2.4767334
0.37294608 -0.3479781 1.0859559 -1.1205876 -0.82102716 -1.1947955 -0.23019515 -1.0902863
2.1748712 0.19521464 0.34113577 -0.13568805 -1.1768771 -0.4744522 -0.24149702 -0.7983757
0.79091257 0.85872704 0.4051611 0.21880957 1.3297019 1.9247369 1.000934 0.43254957
-0.8120523 -0.4530673 0.8403752 -0.19846924 0.7096886 -2.1392527 -0.029913472 -0.060983784
-1.9925274 0.12793592 -0.647477 1.0310342 -2.0434544 0.3701175 -0.0056220805 -1.0621055

linear0.bias f4 [6]
00000000: 502a b53b 75a2 26bb ec8e 90bb ba81 22bc
00000010: 88d2 2d3b 53af 353b
0.0055287257 -0.0025426422 -0.004411569 -0.009918625 0.0026523191 0.002772291

encoder.layers.0.attention.w_q.weight f4 [6, 6]
00000000: 0ea3 3440 a065 1940 b396 07c0 9ea5 823f
00000010: 4b23 adbe 5e52 8ec0 7b6b 93c0 1f20 9c3f
00000020: 14dc 043e 3d1e 2b3f fa6e d33f c930 8540
00000030: 5072 893f bfeb 3cc0 6a03 90bf 5a88 0640
00000040: 11ac 07c0 1ef5 c03f da15 cebf e347 c2bf
00000050: 17cd c0bf ebc9 a13e c178 aebf 7b55 8040
00000060: 926d 9a3f b756 813f 91c2 7fc0 b662 8540
00000070: 1ec5 3b40 e453 c53e 1c1d 4c3e 9daa ebbe
00000080: f2c0 06c0 86fe 0840 ebaf 7040 c968 7cc0
2.822452 2.3968277 -2.118573 1.0206792 -0.3381599 -4.4475546 -4.60687 1.2197303
0.12974578 0.66843015 1.6518242 4.162205 1.073801 -2.9518888 -1.1251042 2.1020722
-2.119877 1.5074804 -1.6100419 -1.5178188 -1.5062588 0.31599364 -1.3630601 4.0104346
1.2064688 1.0104588 -3.9962504 4.1682997 2.933906 0.38540566 0.1993298 -0.46028605
-2.1055264 2.1405349 3.7607372 -3.9438956

encoder.layers.0.attention.w_q.bias f4 [6]
00000000: c1c1 3ebf 511d b8bf 4e9a 3abf 46bf 4bbf
00000010: 0092 8cbf 9a8c db3f
-0.74514395 -1.4383947 -0.728917 -0.79588735 -1.0982056 1.7152283

encoder.layers.0.attention.w_k.weight f4 [6, 6]
00000000: cd8d e93f ff0f 243f b97e dbbf ec5a b8bf
00000010: acf2 1840 eda6 ca3f 4f8f 373f e317 b83f
00000020: f7b5 5abe 1143 2fc0 faa0 e13e 042b e73f
00000030: 49b5 4d3f 0da9 1c3f 756e 5fbf 2204 c6bf
00000040: b59d 153f be71 3840 73e7 7bbf b1a9 2940
00000050: 1436 ad3f d871 eabe ac30 a63d 8b0b 3abf
00000060: 5a70 8bbf 246a 0240 df2d 11bf 9ca7 b0be
00000070: 216d af3f 13a8 bdbf f331 873f 5c13 1bc0
00000080: e8cd fdbf d1c0 2f3f 81b4 9abf dcb5 eb3e
1.8246399 0.6408691 -1.7148048 -1.4402747 2.3898115 1.5832192 0.71703047 1.438229
-0.21358477 -2.7384684 0.44068128 1.8060002 0.80354744 0.6119545 -0.8727792 -1.5470011
0.58443767 2.8819423 -0.9840004 2.6509821 1.3532128 -0.4578998 0.08114752 -0.72673863
-1.0893662 2.0377283 -0.5671062 -0.34502876 1.3705178 -1.4816917 1.0562118 -2.4230566
-1.9828463 0.6865359 -1.2086335 0.46037185

encoder.layers.0.attention.w_k.bias f4 [6]
00000000: e011 22bd 4fae 6f3c b5d3 8dbd c64a c7be
00000010: 069c cf3e 9190 4b3d
-0.03956783 0.014628961 -0.069251455 -0.38924235 0.40548724 0.049698416

encoder.layers.0.attention.w_v.weight f4 [6, 6]
00000000: e0c4 8b40 19b5 90c0 b5bf 2240 0950 81c0
00000010: 2e1b 0240 16f6 5fc0 4b4a 7540 2595 a940
00000020: d71c eabe 858f d43f e805 5cc0 403c eabf
00000030: c1b0 a340 002f 3bbe dd86 d0c0 d6f6 873f
00000040: dbf3 a940 fd31 683f 5829 93bf 00f0 9ac0
00000050: abe5 ff3f 4435 013f 4b74 5740 0810 5040
00000060: e10d 17c0 f316 6640 e9e3 79c0 7d78 1140
00000070: ad9b bdbf cd74 0340 7f90 afc0 fd75 9f3f
00000080: 4554 c840 1372 b1bf 05d3 a1c0 e182 d93f
4.3677826 -4.5221066 2.5429509 -4.04102 2.032909 -3.499395 3.8326595 5.299456
-0.45725128 1.6606299 -3.4378605 -1.8299637 5.1153264 -0.18279648 -6.516463 1.0622203
5.3110175 0.90701276 -1.1496992 -4.841797 1.9991964 0.504719 3.366473 3.2509785
-2.360222 3.5951507 -3.9045355 2.272979 -1.4813133 2.054004 -5.4863887 1.2457882
6.260287 -1.3862938 -5.057009 1.6993066

encoder.layers.0.attention.w_v.bias f4 [6]
00000000: 8216 ab3c 491b 6dbd 5b31 3dbe 1e6a f3bc
00000010: 7f17 243d f57e b6bd
0.020884756 -0.05788735 -0.18475859 -0.029713687 0.04006147 -0.08910934

encoder.layers.0.attention.w_concat.weight f4 [6, 6]
00000000: 71b9 6340 d67b 2c3f 85fd a83f edde 8ec0
00000010: 0302 2bc0 1ba8 af3e e553 22bf f4cd 9c3f
00000020: 2579 113f bbd3 873f b9ca 86bf fab3 0b3f
00000030: 52c0 26bf 8eec 7d3f 243f 673f 97e4 223f
00000040: 38a2 82bf 6998 433f 7673 0cc0 d044 93c0
00000050: 072a 063f c965 14bf 3786 6b40 cc5a b53f
00000060: f40c 5f3f 2841 ccbf 376a 50c0 039c 7cbf
00000070: 4756 bd3f 8cca 4cc0 1472 8bbf e6e9 6240
00000080: f622 08c0 5a91 8740 110b 6cbf 7015 fdbf
3.5581934 0.6737646 1.3202368 -4.4647126 -2.6719978 0.34307942 -0.6340926 1.2250352
0.56825477 1.061149 -1.0530616 0.545715 -0.6513721 0.9918908 0.9033072 0.6363005
-1.0205755 0.76404434 -2.1945472 -4.60215 0.5240788 -0.5796781 3.6800668 1.4168334
0.8712914 -1.5957384 -3.2564828 -0.98675555 1.4791955 -3.1998625 -1.0894189 3.545526
-2.1271338 4.236493 -0.92204386 -1.9772167

encoder.layers.0.attention.w_concat.bias f4 [6]
00000000: e0ba 173d 803f 1abe c5dd 36be 7283 08be
00000010: 9d49 923f a34d b43e
0.037043452 -0.15063286 -0.17858036 -0.13331392 1.1428715 0.35215482

encoder.layers.0.norm1.gamma f4 [6]
00000000: b22d fe3c 80eb f13f 6ad2 0740 2037 853c
00000010: 87b1 083f 42a8 bf3f
0.031027649 1.8899994 2.1222177 0.016261637 0.53395885 1.4973223

encoder.layers.0.norm1.beta f4 [6]
00000000: 9d61 743c 6858 713f 8692 a43f e206 3b3c
00000010: e350 57bf 207a 55bf
0.014915851 0.9427552 1.2857215 0.011415215 -0.841078 -0.8338947

encoder.layers.0.ffn.linear1.weight f4 [2, 6]
00000000: 8681 633f 5055 73bf bff2 7b3d 6307 71bf
00000010: ea42 0c40 9265 3fbd fd7c a03f 1553 b43e
00000020: 1cef 943e a8e4 a93f 1125 9fbf 4818 9dbd
0.8886951 -0.9505205 0.061510798 -0.94151896 2.191584 -0.046727724 1.2538143 0.35219637
0.29088676 1.3272905 -1.2433187 -0.07670647

encoder.layers.0.ffn.linear1.bias f4 [2]
00000000: 7d40 9abe b99d 6abd
-0.30127326 -0.057279322

encoder.layers.0.ffn.linear2.weight f4 [6, 2]
00000000: 1a0f d63e 0d27 35be 910c c53c eb0a 883e
00000010: 898f 6bbd b0f4 843d c5a4 fe3e ba21 5abe
00000020: aa1a 303e 516e 843d d381 66bd 5d28 873f
0.41808397 -0.17690678 0.024053844 0.2657083 -0.057509933 0.06491983 0.49735084 -0.21301928
0.17197672 0.06466354 -0.056276154 1.0559193

encoder.layers.0.ffn.linear2.bias f4 [6]
00000000: 7498 07be cabb c8be f857 6dbf 06fe e6bd
00000010: a642 5bbe b723 0e40
-0.1324175 -0.39205772 -0.92712355 -0.1127892 -0.21412143 2.2209299

encoder.layers.0.norm2.gamma f4 [6]
00000000: f659 bf3f 687e 853f d2a2 863f e25d c13f
00000010: 940f c23f 1fd7 2f3f
1.4949329 1.0429201 1.0518439 1.5106776 1.5161004 0.68687624

encoder.layers.0.norm2.beta f4 [6]
00000000: 2b86 9e3e 1309 d43e ceee 663f 4b4a 9a3e
00000010: a447 ca3e fbe7 a6bf
0.30961737 0.41413173 0.9020814 0.30134806 0.39507782 -1.3039545

linear1.weight f4 [2, 6]
00000000: 703c 45be fab0 4d3e fdb3 3c3e 368b 4fbe
00000010: d23f 8fbe 3d64 bc3e 1bda 8fbe f198 523e
00000020: afc1 713e de12 8bbe 5fb4 aabe 992f ddbd
-0.19261336 0.20087042 0.18428035 -0.20267949 -0.2797838 0.36795226 -0.2809609 0.20566155
0.2360904 -0.27162832 -0.33340737 -0.10800094

linear1.bias f4 [2]
00000000: 61a3 5a3f 41e9 673e
0.85405546 0.22647573

linear2.weight f4 [2, 24]
00000000: 1fe2 093f a541 6a3e c45e 0a3f d745 973e
00000010: cc22 a43e 4765 803e 1345 0e3f e1e3 663e
00000020: 7e42 113f e2bb d53e d066 033f 716f 203e
00000030: 39e9 313f aac9 ec3d db4f 2f3f 1f0e dd3d
00000040: e904 e03e 6077 663e 5b78 143f 7000 973e
00000050: 11be fb3e 3878 013e 89f9 613e 9217 db3e
00000060: 652f f9be d677 6ebe a2a2 abbe 0a38 b1bb
00000070: 6642 dcbe b55b b1be 2722 c6be 091a 22be
00000080: cb97 e8be 3ea1 1dbe 707f 07bf c7bd 9bbe
00000090: 2963 adbe 9311 46be c286 b5be 016a 97be
000000a0: 8d94 15bf a601 26bd e93c 0bbf c709 103d
000000b0: ae61 19bf 10bb 54be 860f cdbe ab62 eebe
0.5386066 0.22876604 0.5405085 0.2954547 0.32057798 0.25077268 0.5557415 0.22547866
0.56742084 0.41744906 0.51328754 0.15667512 0.69496495 0.11561902 0.68481225 0.10793709
0.43753746 0.22506475 0.5799615 0.2949252 0.49168447 0.12643516 0.22067846 0.4279142
-0.48668972 -0.23287901 -0.33522516 -0.0054082917 -0.43019408 -0.3464028 -0.3869793 -0.15830244
-0.4542831 -0.1539354 -0.5292883 -0.30418226 -0.33864716 -0.19342642 -0.35454375 -0.29573062
-0.58429796 -0.040528916 -0.54389817 0.035165574 -0.5991467 -0.20774484 -0.40050906 -0.46559653

linear2.bias f4 [2]
00000000: c988 acc0 f029 b340
-5.3916974 5.5988693
