model_training_groups/group1_checkpoint_6_2_2_1_2.pth (torch, 27814 bytes, 22 tensors)

linear0.weight f4 [6, 768]
-2.4715953 -0.75157905 0.026320502 0.92427903 -0.31893325 0.056932908 -0.4744999 0.6608672
0.5337352 0.17093131 -0.253099 -0.39606333 0.1076874 -0.16998318 0.03237853 0.44514295
-0.16580342 -0.16092652 0.18005492 -0.50914955 0.25200266 -0.40997937 0.1449416 0.1885107
0.48911282 -1.3529716 -0.5085968 -0.32559824 -0.34090137 0.67658263 -0.15162492 -0.42021242
0.56076 -0.57519704 0.0022017702 0.78769517 -0.3104627 0.8689266 0.33887842 0.37415624
-1.6986895 0.11520332 -0.46811748 -1.0749518 0.9356282 -0.6750816 0.0622495 0.27202746
0.38039902 0.74444264 0.051062405 0.14058411 -0.59925854 -0.6259128 -0.56480294 -0.17479506
0.8726664 -1.1423874 1.0269407 0.89477164 0.29663798 -0.29596063 0.116099946 0.42001173
-0.48900506 -1.2769108 1.346749 0.15886712 -0.19507064 -0.5326575 -0.38214925 -0.37669247
0.4560579 0.8480714 -0.41648474 0.4636 0.33060664 0.5384569 -0.8221062 -0.3613632
0.43194997 0.22658122 0.21454635 -1.1369202 0.4755916 0.6408294 0.684343 0.7635245
-0.53129035 0.99968475 0.7072607 -0.5166479 -0.8794164 -1.8213696 -0.46705425 0.50344265
0.44980544 -0.33731756 -0.5541375 0.92496836 -0.0161179 0.56837046 -0.32821748 -1.0484684
-0.635567 0.97429746 0.54967827 -0.37934792 -0.6454408 -0.36285636 0.5383804 -0.77934164
0.3316773 0.6378157 -1.4233496 0.5161681 1.0188191 0.075952426 -0.8049732 1.0488683
-0.6194868 0.24492525 0.1849885 -1.1669886 -0.65525454 -1.7907743 -0.5667394 0.8912595
0.34117165 0.91440165 0.5865558 -0.6994704 -0.09918246 0.13374253 -0.17864567 -0.28997174
1.0174998 1.3778025 -0.75840497 0.662912 -0.22968572 0.0015225367 -0.5069092 -0.22744127
0.16101326 0.35673437 0.11257147 0.49134183 1.1195552 -0.19011666 0.17967385 0.48514435
0.24465851 -0.7383943 -0.2981191 -0.61940634 -0.3558247 -0.28997654 -0.5622457 -0.48047647
-0.24606927 0.09742187 0.5329882 0.71034104 0.5475875 1.1752063 -0.24919637 -0.07563215
-0.42930627 0.71055174 -0.351607 -0.14276937 0.5275412 -0.6861711 -0.58665323 0.036895607
0.8363541 0.13632052 0.5936056 0.4726614 0.43622357 -0.38118482 -0.24113618 0.2490362
-0.6256867 -1.0688884 -1.2330832 0.64992875 -0.11855843 0.7110723 -0.5664057 0.18262705
-0.056854423 0.16308588 -0.4839926 -0.095473275 -0.16797532 0.625234 -0.1267373 -0.12084342
-0.2495731 0.09982778 0.42993852 -0.20343293 0.20070975 0.71749914 0.21820033 1.3975043
0.45535728 -0.5735169 1.2769074 -0.42381212 0.48452857 -0.66389126 0.98854125 -0.14137563
0.56977654 0.14858091 -0.61537176 -0.17075811 -0.7765192 -0.3335576 -0.19499052 -0.008874694
0.3962134 -0.024140319 0.24500337 1.2683215 -0.551245 1.0006248 0.6324227 1.3813194
0.16343968 0.53275436 0.26843756 1.2275637 0.6720151 0.32319278 -0.21848534 -1.1469952
0.33064553 -0.5876449 -0.21517612 -1.001787 -0.023724496 0.2865056 -0.123262785 0.330116
0.17186488 -0.72995746 -1.043051 -0.21581174 -1.7919611 0.17194104 -0.44772005 -0.33579555
00000000: 9e2e 1ec0 7c67 40bf 189e d73c 8d9d 6c3f
00000010: 384b a3be 7b32 693d a7f1 f2be 982e 293f
00000020: dfa2 083f 9e08 2f3e 3196 81be d0c8 cabe
00000030: 368b dc3d 1210 2ebe 599f 043d c7e9 e33e
00000040: 5fc8 29be ecc9 24be 5160 383e a057 02bf
00000050: 7e06 813e d1e8 d1be 926b 143e f308 413e
00000060: ff6c fa3e 2c2e adbf 6633 02bf d0b4 a6be
00000070: a08a aebe 8534 2d3f 9043 1bbe 1526 d7be
00000080: f88d 0f3f 1d40 13bf 934b 103b 64a6 493f
00000090: f8f4 9ebe f971 5e3f 7981 ad3e 6891 bf3e
000000a0: a86e d9bf b8ef eb3d 18ad efbe 0598 89bf
000000b0: 5485 6f3f 26d2 2cbf 55f9 7e3d 2f47 8b3e
000000c0: a9c3 c23e cb93 3e3f d026 513d 48f5 0f3e
000000d0: 0269 19bf d23b 20bf ed96 10bf 7afd 32be
000000e0: 1167 5f3f c039 92bf cb72 833f c10f 653f
000000f0: efe0 973e 2788 97be cfc5 ed3d c70b d73e
00000100: df5e fabe d071 a3bf 4562 ac3f 10ae 223e
00000110: 99c0 47be 3e5c 08bf 11a9 c3be d6dd c0be
00000120: 6c80 e93e 351b 593f 7d3d d5be fb5c ed3e
00000130: 4645 a93e 50d8 093f 8d75 52bf 9904 b9be
00000140: 8c28 dd3e e804 683e 0ab2 5b3e 9a86 91bf
00000150: be80 f33e 650d 243f 1a31 2f3f 5776 433f
00000160: a502 08bf 57eb 7f3f 0a0f 353f 0943 04bf
00000170: 6f21 61bf a422 e9bf bc21 efbe 9ee1 003f
00000180: e64c e63e e3b4 acbe f5db 0dbf baca 6c3f
00000190: b009 84bc ba80 113f 1f0c a8be 3634 86bf
000001a0: 85b4 22bf 8f6b 793f b7b7 0c3f e439 c2be
000001b0: 9c3b 25bf 4fc8 b9be 4cd3 093f ef82 47bf
000001c0: 9bd1 a93e e447 233f 5230 b6bf 9823 043f
000001d0: aa68 823f f28c 9b3d b912 4ebf 5141 863f
000001e0: b096 1ebf afcd 7a3e a06d 3d3e e25f 95bf
000001f0: c3be 27bf 1838 e5bf d515 11bf 9529 643f
00000200: 0dae ae3e 3a16 6a3f 8528 163f 7e10 33bf
00000210: 2c20 cbbd cdf3 083e e4ee 36be 2d77 94be
00000220: 6f3d 823f d55b b03f d426 42bf 9ab4 293f
00000230: bc32 6bbe db8f c73a cdc4 01bf 5de6 68be
00000240: a9e0 243e e3a5 b63e df8b e63d 2891 fb3e
00000250: 964d 8f3f f1ad 42be 6cfc 373e d764 f83e
00000260: c387 7a3e 6907 3dbf 11a3 98be 6a91 1ebf
00000270: a82e b6be ce77 94be 56ef 0fbf 0301 f6be
00000280: 95f9 7bbe 1e85 c73d ea71 083f e9d8 353f
00000290: b22e 0c3f 296d 963f 552d 7fbe 07e5 9abd
000002a0: 08ce dbbe b8e6 353f d505 b4be 2232 12be
000002b0: f10c 073f e9a8 2fbf e82e 16bf d91f 173d
000002c0: 4d1b 563f 9b97 0b3e 89f6 173f ad00 f23e
000002d0: b258 df3e a82a c3be 67ec 76be 5803 7f3e
000002e0: 012d 20bf 56d1 88bf acd5 9dbf bb61 263f
000002f0: c3ce f2bd d608 363f f7ff 10bf 9602 3b3e
00000300: 2fe0 68bd fcff 263e e1cd f7be 7e87 c3bd
00000310: b901 2cbe 560f 203f 6cc7 01be c17c f7bd
00000320: 1790 7fbe 8272 cc3d e720 dc3e b950 50be
00000330: db86 4d3e 06ae 373f e86f 5f3e 6ce1 b23f
00000340: 9724 e93e 01d2 12bf b471 a33f e7fd d8be
00000350: 2114 f83e c7f4 29bf 0a11 7d3f c6c4 10be
00000360: e0dc 113f 9825 183e 0189 1dbf 37db 2ebe
00000370: f6c9 46bf 10c8 aabe 98ab 47be 2a67 11bc
00000380: 7cdc ca3e ebc1 c5bc 2ae2 7a3e 5c58 a23f
00000390: 641e 0dbf 7914 803f 74e6 213f 13cf b03f
000003a0: bb5c 273e 9762 083f a670 893e cf20 9d3f
000003b0: 2e09 2c3f 8679 a53e 9fba 5fbe bdd0 92bf
000003c0: 5f4a a93e e56f 16bf 2157 5cbe 8e3a 80bf
000003d0: e059 c2bc ddb0 923e 3371 fcbd f704 a93e
000003e0: 59fd 2f3e 7ede 3abf b282 85bf c1fd 5cbe
000003f0: fb5e e5bf 5011 303e 903b e5be 65ed abbe

linear0.bias f4 [6]
-0.0090166265 0.00029038536 -0.0026069183 0.00643045 0.012454335 0.0047895205
00000000: 79ba 13bc dd3e 9839 d5d8 2abb 86b6 d23b
00000010: 440d 4c3c 69f1 9c3b

encoder.layers.0.attention.w_q.weight f4 [6, 6]
-0.8492129 5.620157 0.65087575 2.835772 -2.8826728 0.6721361 -1.7469616 4.613948
0.37968323 2.2185154 -1.8252059 2.6862724 -3.355247 2.7607815 -2.218629 0.7622726
1.2020495 3.797418 -6.105823 7.8429713 2.4563408 5.256815 -0.19886474 2.88986
-1.9499164 6.692958 0.22491966 1.0311965 0.033613075 2.577119 1.1549777 -4.3094683
1.8163592 0.0026945341 -0.060156275 -0.5223011
00000000: 0466 59bf 53d8 b340 cb9f 263f 4a7d 3540
00000010: b67d 38c0 1d11 2c3f 709c dfbf 76a5 9340
00000020: d765 c23e 28fc 0d40 59a0 e9bf e3eb 2b40
00000030: 5ebc 56c0 a5b0 3040 04fe 0dc0 4c24 433f
00000040: c2dc 993f e608 7340 e762 c3c0 9ff9 fa40
00000050: b034 1d40 d437 a840 33a3 4bbe 77f3 3840
00000060: dc96 f9bf b62c d640 5751 663e 3ffe 833f
00000070: ddad 093d 85ef 2440 4fd6 933f 2ae7 89c0
00000080: 757e e83f c896 303b 6d66 76bd 86b5 05bf

encoder.layers.0.attention.w_q.bias f4 [6]
-0.9211909 -1.7868527 -1.8292234 -0.784355 -1.3340273 2.4752035
00000000: 2bd3 6bbf 97b7 e4bf fe23 eabf 7dcb 48bf
00000010: 68c1 aabf bc69 1e40

encoder.layers.0.attention.w_k.weight f4 [6, 6]
-0.57483083 -1.7517226 1.1721793 -0.93654776 1.6382282 1.8158575 -0.9021408 -1.5857632
2.452113 -0.8158761 1.5543962 1.8039703 -0.7181245 -1.7250975 2.485739 0.13092385
1.411257 1.8263818 -2.6253233 -0.9229572 1.1543224 2.2588823 -0.9236983 -1.4929149
-1.5864043 -1.9098866 0.36450788 1.00093 -0.23438844 -2.5827522 1.2905282 2.6910825
-1.1367879 -0.35052484 -0.08983907 2.0298817
00000000: 1d28 13bf 7238 e0bf f909 963f 98c1 6fbf
00000010: 76b1 d13f 056e e83f b3f2 66bf 4afa cabf
00000020: 6bef 1c40 42dd 50bf 74f6 c63f 80e8 e63f
00000030: 02d7 37bf ffcf dcbf 5916 1f40 e710 063e
00000040: 12a4 b43f e1c6 e93f 4c05 28c0 ec46 6cbf
00000050: d6c0 933f 8791 1040 7e77 6cbf d617 bfbf
00000060: 4c0f cbbf 2a77 f4bf c7a0 ba3e 791e 803f
00000070: 8603 70be d04b 25c0 0730 a53f b23a 2c40
00000080: 4482 91bf fe77 b3be 8cfd b7bd 95e9 0140

encoder.layers.0.attention.w_k.bias f4 [6]
0.24745528 0.14840811 0.18213446 0.097424135 0.35065776 -0.19952677
00000000: eb64 7d3e 4cf8 173e 7581 3a3e 4e86 c73d
00000010: 6a89 b33e bf50 4cbe

encoder.layers.0.attention.w_v.weight f4 [6, 6]
-2.7193205 0.7644297 -0.23151153 2.4987714 -1.9832398 -1.2362621 1.492268 -1.3193548
0.039866038 4.180002 -1.6101941 -0.03584162 0.43512756 -0.5529309 0.5567795 -0.20843433
-1.6630799 4.824284 4.479593 1.1042477 1.439167 1.4340662 6.403429 0.5812153
0.5740822 -2.0553393 -1.1457907 3.912738 0.69848496 -0.19818509 -0.6862933 -0.59246427
-1.3860421 3.946004 -2.0207214 1.8927921
00000000: 5909 2ec0 aab1 433f 5c11 6dbe dfeb 1f40
00000010: cdda fdbf d63d 9ebf a302 bf3f 9ee0 a8bf
00000020: 924a 233d 94c2 8540 d71a cebf aace 12bd
00000030: 0ac9 de3e e18c 0dbf 1a89 0e3f cf6f 55be
00000040: cddf d4bf 8960 9a40 d358 8f40 fd57 8d3f
00000050: a036 b83f 7b8f b73f e4e8 cc40 87ca 143f
00000060: 0df7 123f ae8a 03c0 45a9 92bf 4d6a 7a40
00000070: e9cf 323f 08f1 4abe ebb0 2fbf bdab 17bf
00000080: d469 b1bf 548b 7c40 8053 01c0 0347 f23f

encoder.layers.0.attention.w_v.bias f4 [6]
-0.022824192 -0.06344746 -0.056464422 0.10179119 0.015856564 -0.07238257
00000000: cdf9 babc bef0 81bd 3d47 67bd e677 d03d
00000010: a0e5 813c 503d 94bd

encoder.layers.0.attention.w_concat.weight f4 [6, 6]
-0.64894533 2.7942266 -0.48871765 0.3603273 -1.7867459 -1.3494451 -0.56058794 -2.3674479
0.28656253 -0.7952727 2.127285 0.58263606 -0.4273853 1.2726222 1.2739937 -2.1687167
-1.6943349 0.8310464 -0.23805404 -2.840563 -0.26473838 0.22829711 2.3726678 0.26402578
1.490164 -2.192386 -1.3084507 2.30071 1.1682149 0.49644864 0.5349859 2.6195548
-0.6691626 0.79709965 -2.3603055 -0.732877
00000000: 4821 26bf 9cd4 3240 3339 fabe d27c b83e
00000010: 17b4 e4bf 9eba acbf b182 0fbf 4484 17c0
00000020: 53b8 923e fe96 4bbf 7025 0840 a327 153f
00000030: 3fd2 dabe 49e5 a23f 3a12 a33f 41cc 0ac0
00000040: f7df d8bf 75bf 543f 70c4 73be c9cb 35c0
00000050: ca8b 87be b8c6 693e cad9 1740 632e 873e
00000060: b2bd be3f 0d50 0cc0 507b a7bf d53e 1340
00000070: 1188 953f 842e fe3e d6f4 083f c9a6 2740
00000080: 3d4e 2bbf b90e 4c3f 3f0f 17c0 d49d 3bbf

encoder.layers.0.attention.w_concat.bias f4 [6]
0.14811818 -0.054310523 -0.1906807 0.110287614 0.5565152 0.33743033
00000000: 4bac 173e b674 5ebd cd41 43be 79de e13d
00000010: c877 0e3f abc3 ac3e

encoder.layers.0.norm1.gamma f4 [6]
1.1788468 0.98493606 0.8526476 0.65990645 0.8354231 1.1899167
00000000: 74e4 963f c524 7c3f 1d47 5a3f a1ef 283f
00000010: 4ade 553f 314f 983f

encoder.layers.0.norm1.beta f4 [6]
-0.08622971 0.5094739 1.0845573 -0.05739609 -1.1913453 -0.47409385
00000000: 3499 b0bd e26c 023f c6d2 8a3f 2a18 6bbd
00000010: 017e 98bf 6ebc f2be

encoder.layers.0.ffn.linear1.weight f4 [2, 6]
-0.38139927 -0.43959498 1.9757445 -0.7502822 0.8851287 0.14923958 -0.38991097 -0.2917127
2.9461057 -0.5844946 -0.8861794 0.1579275
00000000: c446 c3be 9812 e1be 32e5 fc3f 7f12 40bf
00000010: cb97 623f 43d2 183e 69a2 c7be 5e5b 95be
00000020: ff8c 3c40 70a1 15bf a7dc 62bf bfb7 213e

encoder.layers.0.ffn.linear1.bias f4 [2]
-0.28937668 -0.13555075
00000000: 2e29 94be d1cd 0abe

encoder.layers.0.ffn.linear2.weight f4 [6, 2]
0.9914389 1.32263 -0.47704038 -0.23948881 -0.5687577 -0.40512612 -0.19263452 0.18380064
-0.4704268 0.21629323 0.58628595 1.1532338
00000000: f1ce 7d3f f14b a93f a33e f4be 8e3c 75be
00000010: 1b9a 11bf b16c cfbe fc41 45be 3c36 3c3e
00000020: c8db f0be f97b 5d3e d616 163f 2a9d 933f

encoder.layers.0.ffn.linear2.bias f4 [6]
0.33839396 -0.21120474 -1.5682932 0.3851055 0.18524592 0.5757245
00000000: f941 ad3e 0e46 58be d5bd c8bf 8c2c c53e
00000010: 1bb1 3d3e ae62 133f

encoder.layers.0.norm2.gamma f4 [6]
0.95563793 1.3093328 0.65710086 0.9160202 1.2690616 0.91349536
00000000: b0a4 743f 3898 a73f c337 283f 4d80 6a3f
00000010: 9c70 a23f d5da 693f

encoder.layers.0.norm2.beta f4 [6]
-0.51536304 0.20863421 1.161399 -0.4866913 -0.3127733 -0.6659405
00000000: d5ee 03bf 35a4 553e b9a8 943f 9a2f f9be
00000010: d223 a0be 147b 2abf

linear1.weight f4 [2, 6]
0.3071494 -0.12304821 0.73341304 -0.33480373 -0.43752843 0.11532724 -0.1309355 0.5537032
-0.11183402 0.70123047 0.083696105 -0.54315704
00000000: b042 9d3e b300 fcbd f5c0 3b3f 656b abbe
00000010: ba03 e0be b030 ec3d f513 06be 7ebf 0d3f
00000020: 3c09 e5bd d783 333f dd68 ab3d 570c 0bbf

linear1.bias f4 [2]
0.3580738 0.08237585
00000000: 7355 b73e abb4 a83d

linear2.weight f4 [2, 24]
0.2679028 -0.3176842 0.3701625 0.047914695 0.23940788 -0.05437174 0.34195572 -0.27121988
0.37626192 -0.19036561 0.26164007 -0.37751052 0.40229267 -0.3657281 0.40027708 -0.43445358
0.13435747 -0.2316359 0.29063097 -0.13927191 0.17528147 -0.33047998 0.25698793 0.08877746
-0.21580377 0.31387457 -0.16472329 0.24247849 -0.3488374 -0.040872667 -0.1730088 0.33872253
-0.2629333 0.45419136 -0.2774755 0.23031177 -0.04578791 0.28823596 -0.069817945 0.24694842
-0.28096718 0.41646713 -0.25439018 0.4696633 -0.2825544 0.24947844 -0.43658876 -0.12610206
00000000: 8e2a 893e 81a7 a2be f085 bd3e 3342 443d
00000010: 5727 753e e7b4 5ebd d214 af3e 55dd 8abe
00000020: 67a5 c03e 34ef 42be b0f5 853e 0f49 c1be
00000030: 4ef9 cd3e b740 bbbe 1ef1 cc3e b370 debe
00000040: 0195 093e f631 6dbe 95cd 943e 4c9d 0ebe
00000050: fc7c 333e ac34 a9be ec93 833e f5d0 b53d
00000060: aafb 5cbe 2bb4 a03e 39ad 28be 484c 783e
00000070: d19a b2be 196a 27bd 3829 31be 0a6d ad3e
00000080: 329f 86be c58b e83e 4511 8ebe d9d6 6b3e
00000090: 1b8c 3bbd aa93 933e b6fc 8ebd 0ce0 7c3e
000000a0: eeda 8fbe 2e3b d53e 6e3f 82be b577 f03e
000000b0: f8aa 90be 4777 7f3e 9088 dfbe e620 01be

linear2.bias f4 [2]
-0.96781516 1.1751882
00000000: bcc2 77bf 916c 963f
