model_training_groups/group3_checkpoint_6_2_2_1_2.pth (torch, 27814 bytes, 22 tensors)

linear0.weight f4 [6, 768]
0	0x3f5fe885	0.8746417
1	0xbe2e4beb	-0.17021148
2	0x3fb1c050	1.3886814
3	0xbfc6cab8	-1.5530615
4	0xc02c77a1	-2.6948016
5	0x3e9be121	0.30445197
6	0xbfa45051	-1.2837011
7	0x3ebeaa2a	0.372392
8	0x3d9828cf	0.074296586
9	0xbfe7580c	-1.8073745
10	0xbf686468	-0.9077821
11	0x40120eb9	2.2821486
12	0x3e859ce2	0.26096255
13	0xbec2c489	-0.3804057
14	0x3f1c8599	0.61141354
15	0x3f09fd4f	0.53902143
16	0xbf9b8fb9	-1.2153236
17	0x401ba5ec	2.432002
18	0xbe0670ce	-0.13128969
19	0xbfcd7647	-1.605172
20	0x3eba0048	0.3632834
21	0xbe04d352	-0.12971237
22	0xbecd704f	-0.40124747
23	0x3d5567c6	0.05210092
24	0xbf85fef5	-1.0468432
25	0x3efc297f	0.4925041
26	0x3eb43d83	0.3520318
27	0xbfd681af	-1.6758326
28	0x3f3eab37	0.74480003
29	0xbeb74aa2	-0.35799128
30	0x3f3127bd	0.6920126
31	0x3f76c9d9	0.96401745
32	0xbd07371d	-0.033011544
33	0x3e9683bc	0.2939738
34	0xbfd943dd	-1.6973835
35	0xbe7a9a62	-0.24472955
36	0x3ea3c178	0.31983542
37	0x3ee555f3	0.44792137
38	0xbf517f89	-0.8183523
39	0x3f035c59	0.51312786
40	0x3f1fe2f9	0.6245571
41	0x3f05199a	0.5199219
42	0xbe35974a	-0.17733493
43	0xc013251c	-2.29914
44	0x3f4a8fed	0.79125863
45	0xbf09b350	-0.53789234
46	0x3d3aa0ec	0.045563623
47	0x3d3740f6	0.044739686
48	0x3f3259b8	0.6966815
49	0x3dde6ca8	0.10860568
50	0xbe51a9e1	-0.2047496
51	0xbf96cf55	-1.1782023
52	0x3e10b16a	0.14130178
53	0x3ebdb98b	0.3705562
54	0x3e902dc5	0.2815992
55	0x3ff0b3a0	1.8804817
56	0xbfea6867	-1.8313111
57	0xbe52e54d	-0.20595284
58	0x3fcc5d14	1.5965905
59	0xbfa4a5e7	-1.2863129
60	0x3f4e74d7	0.80647033
61	0x4001cb73	2.0280426
62	0xbef8b16f	-0.4857287
63	0x3f1b104b	0.60571736
64	0xbfd2841c	-1.6446567
65	0xbdcb9c94	-0.09941974
66	0x4006739d	2.1008065
67	0xbfccf2fd	-1.6011654
68	0xbfc0e958	-1.5071211
69	0xbcad748b	-0.021173736
70	0x3f915dad	1.1356713
71	0xbf398299	-0.724649
72	0x3f57ddb3	0.8432266
73	0xbf43263c	-0.76230216
74	0xbf363e37	-0.7118868
75	0xbebffa02	-0.37495428
76	0xbf9c3888	-1.2204752
77	0x3e322107	0.17395411
78	0xbf7b192b	-0.9808528
79	0xbee9a4c3	-0.45633516
80	0xbf9e1a2d	-1.2351738
81	0x3f12556d	0.571616
82	0xbf55c9b3	-0.83510894
83	0xbfd5bbb8	-1.6697912
84	0x3f97d4be	1.1861799
85	0x3f2b9fff	0.6704101
86	0xbe810d1c	-0.25205314
87	0x3f6fe471	0.9370795
88	0xbf24c381	-0.64360815
89	0x3f626478	0.88434553
90	0x3f85e2b7	1.0459813
91	0x3e6ef676	0.23336205
92	0xbf549b6f	-0.8304967
93	0x3f2394a2	0.6389867
94	0x3fb7f130	1.437048
95	0x3ecd71dd	0.40125933
96	0xc00d6038	-2.2089977
97	0xbeddac14	-0.43295348
98	0xbfa0e210	-1.2568989
99	0xbf297515	-0.6619428
100	0xbf7161bc	-0.94289756
101	0xbfaa329f	-1.3296698
102	0xbe859cf2	-0.26096302
103	0x3f299f55	0.66258746
104	0xbef35175	-0.47523084
105	0x3e0baeb8	0.13640869
106	0xbf2b26d6	-0.66856134
107	0x3f3ad75c	0.7298486
108	0x3f679fe0	0.90478325
109	0xbe1b384c	-0.15158194
110	0xbf80bafd	-1.0057064
111	0xbfc4c4cb	-1.5372556
112	0x3eb81dd1	0.35960248
113	0xbeccf37b	-0.4002951
114	0xbe6f1cbb	-0.23350804
115	0x3e5b42b9	0.21412171
116	0x3f5ec028	0.8701196
117	0x3fc63513	1.5484947
118	0x3e9d472e	0.30718368
119	0xbdbca7fb	-0.09211727
120	0x3fa0f733	1.2575439
121	0x3f8ca07a	1.0986474
122	0x3ebde001	0.37084964
123	0xbe4871e4	-0.19574696
124	0x3f17090e	0.5899819
125	0xbf5fd8e5	-0.8744033
126	0x3fda4f76	1.70555
127	0xbed7ca1c	-0.42146385
128	0xbfdd6fcc	-1.7299743
129	0x3eab1f9e	0.3342256
130	0xbd9eede1	-0.077602156
131	0x3f3e52b7	0.7434496
132	0xbfdcedea	-1.7260106
133	0x3f87981f	1.0593299
134	0xbfb46dcd	-1.4096009
135	0x3fcb4b61	1.5882379
136	0xbf549162	-0.83034337
137	0x3f1eff28	0.6210809
138	0xbfada0b3	-1.3564667
139	0xbe95a816	-0.29229802
140	0xbff28c63	-1.8949093
141	0xc01458dd	-2.3179238
142	0xbd8b6f39	-0.068083234
143	0xbf6868e9	-0.9078508
144	0x4011b960	2.2769394
145	0x3e841300	0.25795746
146	0x3ebe7ec0	0.37206078
147	0xbea3fe72	-0.32030064
148	0x3fb636d8	1.4235487
149	0xbea456d4	-0.32097495
150	0xbd980be4	-0.07424143
151	0x3f60319d	0.87575704
152	0x3f59e944	0.8512156
153	0xbd614960	-0.055001616
154	0xbe8ed63d	-0.27897826
155	0x3cab532e	0.020913687
156	0x3e6c95dc	0.23104042
157	0xbf82fc95	-1.0233332
158	0x3efc431d	0.49269953
159	0xbf68e27b	-0.9097058
160	0x3fc9a8a0	1.5754585
161	0x3f97a484	1.1847081
162	0x3e8f57a3	0.2799655
163	0x3daf8148	0.0856958
164	0xbfcfca53	-1.623362
165	0x3f2c6dec	0.6735523
166	0xbf826677	-1.018752
167	0xbf938b09	-1.1526805
168	0xbc98c5ea	-0.01864906
169	0xbfa52ad0	-1.290369
170	0x3df9b842	0.121933475
171	0x3fbe89f1	1.4885846
172	0x3eb186fb	0.34673294
173	0xbf542da2	-0.8288213
174	0xbf3c66b3	-0.73594207
175	0xbf92a60b	-1.1456922
176	0x401d8d97	2.461767
177	0x401ca553	2.4475906
178	0x3f146045	0.57959396
179	0x3d188c8c	0.03724341
180	0x3eff40f3	0.4985424
181	0xbf4d7b3b	-0.8026616
182	0xc0090b08	-2.1412983
183	0xbe22e910	-0.15909219
184	0x3ed7b254	0.4212824
185	0x3f25eb79	0.6481243
186	0x3e6f06e5	0.23342474
187	0xbe86c2bb	-0.26320443
188	0x3f178a06	0.5919498
189	0xc0070489	-2.1096518
190	0xbfe9e784	-1.8273778
191	0x3ea0b972	0.31391484
192	0x3d29a786	0.04141953
193	0x3fb9a494	1.450335
194	0xbf71ccb4	-0.9445298
195	0x3fca8004	1.5820317
196	0xbc46c698	-0.012132309
197	0xbfa4b1bd	-1.2866741
198	0x40179585	2.368501
199	0x3dcff02e	0.101532325
200	0xbe04105f	-0.1289687
201	0xbe93968c	-0.28825796
202	0xbf7c4e1d	-0.9855669
203	0xbe6e1c40	-0.23252964
204	0x3f2e19e6	0.6800827
205	0x3f547bee	0.830016
206	0xbeecaecb	-0.46227106
207	0xbeea87fc	-0.45806873
208	0xbf486275	-0.78275234
209	0x3fbadbaf	1.4598292
210	0xbf92423b	-1.1426462
211	0xbf07a7f9	-0.5299068
212	0x3fc0cc09	1.5062267
213	0xbf1dbddc	-0.6161783
214	0xbfdd483f	-1.7287673
215	0xbf80c63d	-1.0060498
216	0x3f4f04cc	0.80866694
217	0x3faccad7	1.3499402
218	0xbf3c35c7	-0.7351956
219	0xbebfa9bb	-0.37434182
220	0x3f39cfe7	0.7258286
221	0x3fb277bd	1.3942791
222	0x3fb64318	1.4239225
223	0xbf8b7870	-1.089613
224	0x3fe823a7	1.813588
225	0xbd3030c7	-0.043015268
226	0x3f3f08d8	0.7462287
227	0x3fb58ff8	1.4184561
228	0x3f0d47d2	0.55187714
229	0x3fa99f94	1.3251824
230	0xc0014630	-2.019909
231	0xbf2b3c2f	-0.6688871
232	0x3f8acd0d	1.0843827
233	0x3ef57acb	0.47945246
234	0xbed34c13	-0.41268978
235	0xbf706240	-0.9389992
236	0x3fc60a72	1.5471938
237	0x3faed7f4	1.3659654
238	0x3f4560cc	0.77100825
239	0x40180912	2.3755536
240	0xbe11d5a1	-0.14241649
241	0x3eeb52bb	0.45961556
242	0x3d85815f	0.06518816
243	0xbf80e1a9	-1.0068866
244	0xbec16f34	-0.37780154
245	0xc039183a	-2.8921037
246	0x3f8c0690	1.0939503
247	0x3f1f1103	0.6213533
248	0x3f919c4b	1.1375822
249	0xbe018770	-0.12649322
250	0x3ecf5065	0.40491024
251	0xbb4852f1	-0.0030567015
252	0x3e5d4ab8	0.21610534
253	0xbd1e230b	-0.03860764
254	0x3f9cbcea	1.2245152
255	0x3cd5d12f	0.026100723

linear0.bias f4 [6]
0	0x3c0454f5	0.008076896
1	0xbb9642cd	-0.0045856
2	0x3a6cb99b	0.0009030343
3	0xbc314f54	-0.010822136
4	0xbb1685c4	-0.0022967914
5	0x3b51659d	0.0031951435

encoder.layers.0.attention.w_q.weight f4 [6, 6]
0	0x408079c5	4.0148644
1	0x3e25c7d5	0.16189511
2	0x40507897	3.2573602
3	0xbe5b93b8	-0.21443069
4	0x3eebe2f0	0.46071577
5	0x3ebc1b85	0.36739746
6	0x3f41107b	0.7541577
7	0x4024e781	2.5766299
8	0xc0015abb	-2.0211627
9	0x3f8560df	1.0420188
10	0xc09705be	-4.719451
11	0xc02d0cba	-2.7039018
12	0xc0bbcd86	-5.8688383
13	0xbfa4aa39	-1.2864448
14	0xbfdc646a	-1.7218144
15	0x4011abe3	2.2761161
16	0x3f782fc8	0.9694791
17	0x406cdb0f	3.7008703
18	0xbe270714	-0.16311294
19	0x4039acb6	2.9011664
20	0xbf92e376	-1.1475666
21	0x4038d2e4	2.8878717
22	0x403511cd	2.8292115
23	0x3e5ed30c	0.21760195
24	0x3e8f62f5	0.28005186
25	0xbf0afbc2	-0.542904
26	0x3fd5eab2	1.6712248
27	0x3f2341eb	0.6377246
28	0xbfacd3cb	-1.3502134
29	0x4063f7ba	3.561995
30	0xbfa72114	-1.305697
31	0x3f8f1663	1.1178707
32	0xbfcd6557	-1.6046551
33	0x4000640b	2.0061061
34	0x4014019a	2.3125978
35	0xc09b7fb2	-4.859338

encoder.layers.0.attention.w_q.bias f4 [6]
0	0xbf9e76ae	-1.2379968
1	0xbf9cedd8	-1.2260084
2	0xbf85f0d6	-1.0464122
3	0xbf2af000	-0.6677246
4	0x3fc4c28b	1.537187
5	0x3fb929e3	1.4465908

encoder.layers.0.attention.w_k.weight f4 [6, 6]
0	0x40171028	2.360361
1	0xbe79d902	-0.24399188
2	0xc003c0a4	-2.0586329
3	0xbf934d61	-1.1507989
4	0x3ffa9556	1.9576824
5	0x3fc0d6f6	1.5065601
6	0x3f68aaeb	0.908858
7	0xbf13239d	-0.57476217
8	0xbecda4bb	-0.40164742
9	0xbfee617e	-1.8623502
10	0x4020fc98	2.515417
11	0x3fd34d93	1.6508049
12	0x3e18849a	0.14894333
13	0x3e5de01c	0.21667522
14	0xc00f4c37	-2.2390268
15	0xbf89be67	-1.0761231
16	0x3f39b615	0.7254346
17	0x404d348b	3.206332
18	0x3f218506	0.630936
19	0x3eaed434	0.34146273
20	0x4031915c	2.774497
21	0xbf1c7856	-0.6112112
22	0xbfa350b4	-1.2759004
23	0x3feba1b0	1.8408718
24	0xbf0793e1	-0.5296002
25	0x3e5546e1	0.2082782
26	0xc0060722	-2.0941854
27	0x3fdafff3	1.710936
28	0x3f321344	0.69560647
29	0xbfe81043	-1.8129963
30	0xbe88ed03	-0.26743326
31	0x3f3910ec	0.72291446
32	0xc025b746	-2.5893111
33	0x3f5cdde2	0.86276066
34	0xbebfa72b	-0.37432227
35	0xc03c49d7	-2.9420068

encoder.layers.0.attention.w_k.bias f4 [6]
0	0x3e860478	0.26175284
1	0xbd55cd06	-0.05219748
2	0x3cee00dd	0.029053146
3	0x3dcf6502	0.101266876
4	0x3ee860e2	0.45386416
5	0xbee4d416	-0.4469306

encoder.layers.0.attention.w_v.weight f4 [6, 6]
0	0x3eae0b6e	0.33993095
1	0x3ef51a07	0.4787142
2	0x40946a0b	4.6379447
3	0xc059a7d2	-3.400868
4	0x40712e49	3.76845
5	0xc0dceaf0	-6.903679
6	0x4029cac6	2.6530013
7	0x40920c07	4.563968
8	0xbe8efe70	-0.27928495
9	0xbf807f6b	-1.0038885
10	0xc0871c76	-4.222224
11	0xbf9f5c2f	-1.2450007
12	0x4074ed6e	3.8269916
13	0xc0a815e3	-5.2526717
14	0xbf8846a6	-1.064656
15	0x409b6b7f	4.856872
16	0x3fbbae13	1.4662498
17	0xbfa47d83	-1.2850803
18	0xbea19d96	-0.3156554
19	0xc0286857	-2.6313684
20	0xc0219ecc	-2.5253172
21	0x40b9dcbf	5.8081965
22	0x4022fa5f	2.5465314
23	0x3fd2aaf5	1.6458422
24	0xc01992e6	-2.399591
25	0xbfb27e7f	-1.3944854
26	0x3fdb816d	1.7148873
27	0x40273370	2.6125145
28	0x409c5c2a	4.8862505
29	0x3f5ccf73	0.8625404
30	0xc08e4f1a	-4.447156
31	0x4025e37c	2.5920095
32	0xbfeb1ce4	-1.8368192
33	0xc004273a	-2.0648942
34	0xc082ea4a	-4.0910997
35	0x3f5c6538	0.8609195

encoder.layers.0.attention.w_v.bias f4 [6]
0	0x3de9fb1a	0.11424847
1	0xbde5b969	-0.11217005
2	0x3d39e221	0.04538167
3	0x3cdc2e19	0.02687745
4	0xbd7db844	-0.061943308
5	0xbd3c64b3	-0.04599447

encoder.layers.0.attention.w_concat.weight f4 [6, 6]
0	0x40075acf	2.1149175
1	0x404a1bc0	3.1579437
2	0x3f708fe8	0.93969584
3	0x3fadfebe	1.3593366
4	0x3f2637b6	0.6492876
5	0xc00dcc80	-2.2156067
6	0xc044e80c	-3.076663
7	0x4063a242	3.5567784
8	0x3f9cda6c	1.2254157
9	0xbf9c2613	-1.2199119
10	0x40869643	4.2058425
11	0xbed93803	-0.42425546
12	0xbff54281	-1.916092
13	0xc01a015d	-2.4063332
14	0x4018006c	2.3750257
15	0xc04defd9	-3.2177641
16	0xbf2bd230	-0.67117596
17	0x3f07c66d	0.5303715
18	0x3f87e9e5	1.0618254
19	0xbffcdf4f	-1.9755648
20	0xbf38efcf	-0.7224092
21	0x3edf475e	0.43609136
22	0xc00268d0	-2.0376472
23	0x3e507ccf	0.2036011
24	0x3fb402e8	1.4063387
25	0xc019e5c2	-2.4046483
26	0xbf66cafc	-0.9015348
27	0x3f2d3514	0.67659116
28	0xc022ead4	-2.5455828
29	0x3ecb5a9c	0.39717567
30	0xbf0b156f	-0.5432958
31	0xbcc6d7d4	-0.024272837
32	0xc06ecb0c	-3.731143
33	0x4007aaa5	2.1197903
34	0x3fa5e312	1.2959921
35	0x40107f38	2.2577648

encoder.layers.0.attention.w_concat.bias f4 [6]
0	0x3e9c1383	0.30483636
1	0xbec62cec	-0.38706148
2	0xbe7d9ff5	-0.2476805
3	0x3e9c727d	0.30556098
4	0x3eb5ace2	0.35483462
5	0x3ec03b2a	0.3754514

encoder.layers.0.norm1.gamma f4 [6]
0	0x3c172733	0.009225654
1	0x3f00cfaf	0.503169
2	0x3fa14c8b	1.2601484
3	0x3fd32b68	1.6497622
4	0x3fc137c2	1.5095141
5	0x3d31216f	0.043244775

encoder.layers.0.norm1.beta f4 [6]
0	0x3c05e62b	0.008172552
1	0x3f3a7829	0.728396
2	0x3f537b3c	0.82609916
3	0xbf7f3a2b	-0.9969813
4	0xbf9ac053	-1.2089943
5	0xbb39ba2d	-0.002833973

encoder.layers.0.ffn.linear1.weight f4 [2, 6]
0	0xbf2c76d4	-0.6736882
1	0xbff02a4a	-1.8762906
2	0x3d94eae2	0.07271363
3	0xbdc85031	-0.0978092
4	0xbda2ebdd	-0.079551436
5	0xbf89e446	-1.0772789
6	0xbfbf579d	-1.4948612
7	0x3fb5beda	1.4198868
8	0x3da94f3f	0.08267068
9	0xbed3f841	-0.4140034
10	0xbd215a3a	-0.039392687
11	0xbfa337fc	-1.275146

encoder.layers.0.ffn.linear1.bias f4 [2]
0	0xbeb3d3f3	-0.35122642
1	0xbe09cb4f	-0.13456462

encoder.layers.0.ffn.linear2.weight f4 [6, 2]
0	0xbf468452	-0.77545655
1	0x3f3be32d	0.7339352
2	0xbdeeb60a	-0.11655815
3	0x3eb9f96a	0.363231
4	0xbdcb19f3	-0.09917059
5	0xbc8dc7df	-0.01730722
6	0x3e4a61bf	0.1976385
7	0x3e733baf	0.23753236
8	0x3dd01538	0.10160297
9	0x3df180a6	0.11792116
10	0xbf2e3e3c	-0.6806371
11	0x3f380d86	0.71895635

encoder.layers.0.ffn.linear2.bias f4 [6]
0	0x3d80f294	0.06296268
1	0x3e2613bb	0.16218464
2	0xc00f34d1	-2.2375987
3	0x3f138c9e	0.5763644
4	0x3f182f35	0.5944703
5	0x3d8cf3bf	0.068824284

encoder.layers.0.norm2.gamma f4 [6]
0	0x3fb18437	1.3868474
1	0x3fb2b856	1.3962505
2	0x3f40491d	0.7511156
3	0x3f8361f7	1.0264271
4	0x3f903ced	1.1268593
5	0x3fbde557	1.4835614

encoder.layers.0.norm2.beta f4 [6]
0	0xbe749610	-0.2388537
1	0xbec56086	-0.38550204
2	0x3fb8c318	1.4434538
3	0xbf25199a	-0.6449219
4	0xbf3a9381	-0.72881323
5	0xbe8c1aae	-0.27364105

linear1.weight f4 [2, 6]
0	0x3ea9f79d	0.33196726
1	0x3f02d271	0.5110236
2	0x3f1dc7c7	0.6163296
3	0xbeab08e0	-0.3340521
4	0xbe742c89	-0.23845114
5	0x3e9ee7d8	0.31036258
6	0xbedc5531	-0.43033746
7	0xbee38993	-0.44440898
8	0x3f4e3cbd	0.8056143
9	0x3e855759	0.26043203
10	0x3e75ebcd	0.24015732
11	0xbeda53fc	-0.426422

linear1.bias f4 [2]
0	0x3e978be8	0.29598927
1	0x3e8104bf	0.25198933

linear2.weight f4 [2, 24]
0	0x3e86546f	0.26236293
1	0xbe94aa45	-0.29036155
2	0x3eadc7db	0.3394154
3	0xbdd419e9	-0.103565045
4	0x3e09cbf6	0.13456711
5	0xbea93c78	-0.33053946
6	0x3ea134b2	0.31485516
7	0xbe670589	-0.22560705
8	0x3eafb970	0.34321165
9	0xbddd30e8	-0.10800344
10	0x3e82fa7a	0.25581723
11	0xbeabb6c5	-0.3353788
12	0x3edb10b2	0.42786175
13	0xbea42717	-0.32061073
14	0x3ed70cce	0.42001957
15	0xbebbc003	-0.3666993
16	0x3e56a79c	0.20962375
17	0xbe4f9ac3	-0.2027388
18	0x3e8e118d	0.27747765
19	0xbe0a2ced	-0.134937
20	0x3e151ff4	0.1456297
21	0xbea2f998	-0.3183105
22	0x3e3bb0ef	0.18329214
23	0xbe87213e	-0.2639255
24	0xbe57af04	-0.21062857
25	0x3e9293f3	0.286285
26	0xbe0989b7	-0.1343144
27	0x3ec98847	0.39361784
28	0xbe7a33bd	-0.24433799
29	0x3e709172	0.23492983
30	0xbe15c1aa	-0.14624658
31	0x3e95f007	0.2928469
32	0xbe6bc1e0	-0.23023176
33	0x3ebe3c0e	0.37155193
34	0xbe8b4534	-0.27201235
35	0x3e406802	0.18789676
36	0xbd92df2f	-0.07171475
37	0x3e78a932	0.24283293
38	0xbdb83532	-0.08994521
39	0x3e373b61	0.17893745
40	0xbeb69406	-0.35659808
41	0x3ec64e7c	0.38731754
42	0xbe7769b3	-0.24161415
43	0x3eee1bb8	0.46505523
44	0xbe81ac9e	-0.2532701
45	0x3e72ba4e	0.23703882
46	0xbeb9fd2d	-0.3632597
47	0x3e67a99c	0.22623295

linear2.bias f4 [2]
0	0xbd64e1f9	-0.055879567
1	0x3e86af05	0.26305404
